evaluation/raspberry_pi/models/model_int8.tflite (tflite, 58600 bytes, 10 tensors)

model/conv2d/Conv2D i1 [16, 3, 3, 1]
000000 c3 19 88 81 1c 39 14 19 38 f9 10 d1 08 b2 0c 3e
       -61 25 -120 -127 28 57 20 25 56 -7 16 -47 8 -78 12 62
000010 7f 0a 16 c8 14 3c 99 ad 81 da 32 2e 90 13 65 0d
       127 10 22 -56 20 60 -103 -83 -127 -38 50 46 -112 19 101 13
000020 5b 01 47 7f 1b 7b 34 93 bc 81 55 61 f6 ae 39 d7
       91 1 71 127 27 123 52 -109 -68 -127 85 97 -10 -82 57 -41
000030 ea 7f 33 c3 cc b9 4b b8 f3 d5 f3 3e 81 c8 81 5f
       -22 127 51 -61 -52 -71 75 -72 -13 -43 -13 62 -127 -56 -127 95
000040 81 c1 6b 88 2f 62 45 27 be 24 69 4c c2 7f c9 fa
       -127 -63 107 -120 47 98 69 39 -66 36 105 76 -62 127 -55 -6
000050 51 81 a9 7c e7 b1 7d 1a 6d f2 4f 44 9b 7f 32 9a
       81 -127 -87 124 -25 -79 125 26 109 -14 79 68 -101 127 50 -102
000060 9c 2d 35 9d bc b2 2d 9f 9c 41 1d 7f 79 7d 7e ef
       -100 45 53 -99 -68 -78 45 -97 -100 65 29 127 121 125 126 -17
000070 47 39 81 a5 fa 7f 5f 31 b4 cf e8 b7 fb f9 b9 7a
       71 57 -127 -91 -6 127 95 49 -76 -49 -24 -73 -5 -7 -71 122
000080 a6 3f 18 32 81 3c 6e 92 ed ae b9 d4 9d 81 74 9a
       -90 63 24 50 -127 60 110 -110 -19 -82 -71 -44 -99 -127 116 -102

model/conv2d_1/Conv2D i1 [16, 3, 3, 16]
000000 cb 39 45 ae cd 20 c0 33 e7 c3 a6 32 f5 ad d1 f7
       -53 57 69 -82 -51 32 -64 51 -25 -61 -90 50 -11 -83 -47 -9
000010 74 c9 40 30 da 19 29 db a8 2d 23 f8 0d 45 a4 fb
       116 -55 64 48 -38 25 41 -37 -88 45 35 -8 13 69 -92 -5
000020 45 f9 05 df f5 f4 34 19 29 57 29 62 ce 47 9b 12
       69 -7 5 -33 -11 -12 52 25 41 87 41 98 -50 71 -101 18
000030 fc 34 cf d5 ca 2d 34 0d 01 d1 b1 c3 a6 bc a9 1a
       -4 52 -49 -43 -54 45 52 13 1 -47 -79 -61 -90 -68 -87 26
000040 20 19 e4 cd ad 06 41 33 9c cd ba e4 d8 3b d3 bb
       32 25 -28 -51 -83 6 65 51 -100 -51 -70 -28 -40 59 -45 -69
000050 51 01 f6 81 24 1d 05 18 19 bc d5 15 c7 3f cb 1a
       81 1 -10 -127 36 29 5 24 25 -68 -43 21 -57 63 -53 26
000060 24 ff 0b 10 e4 cc e1 30 e3 0f 2f e3 07 f7 1f fe
       36 -1 11 16 -28 -52 -31 48 -29 15 47 -29 7 -9 31 -2
000070 d1 c4 2d aa 0a 13 d7 f5 15 d2 db f7 cb a8 10 09
       -47 -60 45 -86 10 19 -41 -11 21 -46 -37 -9 -53 -88 16 9
000080 f9 28 05 a4 ab ea 26 a1 a3 a9 1a f1 a9 d6 a0 b9
       -7 40 5 -92 -85 -22 38 -95 -93 -87 26 -15 -87 -42 -96 -71
000090 1f 28 16 19 0f 02 01 18 2e f8 22 fb f1 11 30 f7
       31 40 22 25 15 2 1 24 46 -8 34 -5 -15 17 48 -9
0000a0 fd 4b 20 e9 35 f2 f1 0a 0a 22 1a fb dc f7 0d 0a
       -3 75 32 -23 53 -14 -15 10 10 34 26 -5 -36 -9 13 10
0000b0 cf 19 20 d4 f3 bf 07 15 01 0f b8 bf b5 ed c4 ff
       -49 25 32 -44 -13 -65 7 21 1 15 -72 -65 -75 -19 -60 -1
0000c0 29 ef 1b f6 e7 12 1d 00 1c 3a dd 31 1d f1 01 f4
       41 -17 27 -10 -25 18 29 0 28 58 -35 49 29 -15 1 -12
0000d0 11 f5 10 df e7 1e e7 d8 fb 12 f7 f9 13 cc 15 f1
       17 -11 16 -33 -25 30 -25 -40 -5 18 -9 -7 19 -52 21 -15
0000e0 f1 da 00 d6 d1 0e f9 f6 f2 bc 1f 08 d0 81 d8 1b
       -15 -38 0 -42 -47 14 -7 -10 -14 -68 31 8 -48 -127 -40 27
0000f0 0d db ee 16 fd 14 01 ef 22 4a bf 21 03 0d fd e1
       13 -37 -18 22 -3 20 1 -17 34 74 -65 33 3 13 -3 -31

model/conv2d_2/Conv2D i1 [32, 3, 3, 16]
000000 10 1b 1d ed c2 0d 01 b0 00 fa d3 12 ee 1a fb 1c
       16 27 29 -19 -62 13 1 -80 0 -6 -45 18 -18 26 -5 28
000010 02 37 2b f2 04 e7 f8 13 11 0b d7 01 2e ec fa 20
       2 55 43 -14 4 -25 -8 19 17 11 -41 1 46 -20 -6 32
000020 ec 2b f8 f9 c5 eb 17 00 0a fc da 16 18 14 e8 04
       -20 43 -8 -7 -59 -21 23 0 10 -4 -38 22 24 20 -24 4
000030 1d 14 b3 e7 1e b6 b9 c8 db df f7 f9 fe f1 0e 27
       29 20 -77 -25 30 -74 -71 -56 -37 -33 -9 -7 -2 -15 14 39
000040 f3 40 f3 26 0d f5 e6 00 33 0c fe 04 f3 0c ff 0a
       -13 64 -13 38 13 -11 -26 0 51 12 -2 4 -13 12 -1 10
000050 ec 3c 25 27 01 0a eb 34 24 04 04 12 de 3b 08 e6
       -20 60 37 39 1 10 -21 52 36 4 4 18 -34 59 8 -26
000060 11 18 ed 09 be c3 10 e5 b8 02 ed d3 cd dc e3 2f
       17 24 -19 9 -66 -61 16 -27 -72 2 -19 -45 -51 -36 -29 47
000070 f6 04 04 19 17 18 27 c3 00 28 23 05 ce ff 1a 81
       -10 4 4 25 23 24 39 -61 0 40 35 5 -50 -1 26 -127
000080 0e f7 00 ff de 17 2f 31 fe 0c 34 1d ee 15 fd e0
       14 -9 0 -1 -34 23 47 49 -2 12 52 29 -18 21 -3 -32
000090 06 c9 e0 0c 1e eb fb d4 dd d6 1f d1 0c ef de fb
       6 -55 -32 12 30 -21 -5 -44 -35 -42 31 -47 12 -17 -34 -5
0000a0 32 0c bb 32 43 1a 2c 26 e0 21 24 ae 06 e1 ef e2
       50 12 -69 50 67 26 44 38 -32 33 36 -82 6 -31 -17 -30
0000b0 00 1d b1 ff ff b3 13 bb e5 c8 dd a0 cb c2 e6 2f
       0 29 -79 -1 -1 -77 19 -69 -27 -56 -35 -96 -53 -62 -26 47
0000c0 cf f7 22 ec ea 10 1a c9 db 05 f2 f3 11 f9 05 81
       -49 -9 34 -20 -22 16 26 -55 -37 5 -14 -13 17 -7 5 -127
0000d0 16 ea 35 23 fc 06 0a 1a 0c 1e 23 18 f4 df e0 1c
       22 -22 53 35 -4 6 10 26 12 30 35 24 -12 -33 -32 28
0000e0 c6 05 2b 4d ba ea 28 f9 16 e4 fa 40 41 2b ef 40
       -58 5 43 77 -70 -22 40 -7 22 -28 -6 64 65 43 -17 64
0000f0 cc af 21 f7 27 21 0b cc ff 21 dd 26 07 f4 29 d7
       -52 -81 33 -9 39 33 11 -52 -1 33 -35 38 7 -12 41 -41

model/conv2d_3/Conv2D i1 [32, 3, 3, 32]
000000 ea d7 b0 f9 0a 08 f8 eb c0 fe f1 eb ff d9 08 dc
       -22 -41 -80 -7 10 8 -8 -21 -64 -2 -15 -21 -1 -39 8 -36
000010 25 a0 d3 18 9f d5 03 f7 25 0d 1d f6 df e6 e0 fb
       37 -96 -45 24 -97 -43 3 -9 37 13 29 -10 -33 -26 -32 -5
000020 9d f3 aa 07 19 1f 1d f6 a2 0a f8 f1 00 e0 ff d0
       -99 -13 -86 7 25 31 29 -10 -94 10 -8 -15 0 -32 -1 -48
000030 c3 e0 d8 44 0e e1 b3 24 31 df da ee 1e ce ef ef
       -61 -32 -40 68 14 -31 -77 36 49 -33 -38 -18 30 -50 -17 -17
000040 aa 81 b7 3c 28 3c d8 d3 ef 1b eb c8 26 1a 08 eb
       -86 -127 -73 60 40 60 -40 -45 -17 27 -21 -56 38 26 8 -21
000050 82 e1 ec 40 dc ed f5 04 ca 01 e7 df 00 ec 21 16
       -126 -31 -20 64 -36 -19 -11 4 -54 1 -25 -33 0 -20 33 22
000060 39 33 0a 3a 12 cf d1 ff e9 0d 05 fa f2 09 b5 ff
       57 51 10 58 18 -49 -47 -1 -23 13 5 -6 -14 9 -75 -1
000070 49 f4 e2 16 e2 0b 22 12 d4 cf f1 98 e6 88 c4 03
       73 -12 -30 22 -30 11 34 18 -44 -49 -15 -104 -26 -120 -60 3
000080 c8 43 dc 00 3f de e3 2d de 1e 24 f6 0a d1 f4 23
       -56 67 -36 0 63 -34 -29 45 -34 30 36 -10 10 -47 -12 35
000090 1c 15 e1 15 37 e0 06 17 21 c2 02 26 1d 01 ca 03
       28 21 -31 21 55 -32 6 23 33 -62 2 38 29 1 -54 3
0000a0 b2 e8 18 0f a6 fe a2 01 ec 02 e7 02 0b 2f d8 08
       -78 -24 24 15 -90 -2 -94 1 -20 2 -25 2 11 47 -40 8
0000b0 25 eb 02 ce 0e fe 43 1b d6 11 f1 24 fd ed 0f e8
       37 -21 2 -50 14 -2 67 27 -42 17 -15 36 -3 -19 15 -24
0000c0 60 ee eb 36 fe d9 ff 37 1c 13 ea 0c db fa 12 1c
       96 -18 -21 54 -2 -39 -1 55 28 19 -22 12 -37 -6 18 28
0000d0 18 02 f3 3b 04 13 3a 11 fe 50 e0 f6 f9 2c e2 30
       24 2 -13 59 4 19 58 17 -2 80 -32 -10 -7 44 -30 48
0000e0 d4 c9 1d 11 aa be 1b 0a 19 ec d8 46 00 f7 0f f9
       -44 -55 29 17 -86 -66 27 10 25 -20 -40 70 0 -9 15 -7
0000f0 fa 0f 24 cc e7 23 ee e3 39 3f 2b 39 df 37 fb d6
       -6 15 36 -52 -25 35 -18 -29 57 63 43 57 -33 55 -5 -42

model/conv2d_4/Conv2D i1 [32, 3, 3, 32]
000000 e6 d5 1a f7 f3 f5 ff 43 18 06 e8 13 00 fc f8 08
       -26 -43 26 -9 -13 -11 -1 67 24 6 -24 19 0 -4 -8 8
000010 f3 fe e4 0e b5 ff 0a f6 e0 1e fa e2 35 02 ff fd
       -13 -2 -28 14 -75 -1 10 -10 -32 30 -6 -30 53 2 -1 -3
000020 eb de eb f2 fe ef 0c d8 f2 ea 12 14 da 13 e9 21
       -21 -34 -21 -14 -2 -17 12 -40 -14 -22 18 20 -38 19 -23 33
000030 e4 e9 f8 00 1f 12 fa f2 f9 15 01 0a f1 00 e4 f1
       -28 -23 -8 0 31 18 -6 -14 -7 21 1 10 -15 0 -28 -15
000040 e7 f2 f2 e0 00 f9 03 e8 fe fe 09 fd 27 e6 16 03
       -25 -14 -14 -32 0 -7 3 -24 -2 -2 9 -3 39 -26 22 3
000050 f9 ec ee ee 28 fa 0b e7 0b c4 ec f2 07 d9 00 ec
       -7 -20 -18 -18 40 -6 11 -25 11 -60 -20 -14 7 -39 0 -20
000060 ef dd 0b 08 13 0f 0e f9 f5 19 07 0e e9 1f 02 e6
       -17 -35 11 8 19 15 14 -7 -11 25 7 14 -23 31 2 -26
000070 12 eb db 07 81 e8 f7 f8 0b e4 09 bb ff 0f 0d 0b
       18 -21 -37 7 -127 -24 -9 -8 11 -28 9 -69 -1 15 13 11
000080 ff 00 0e fa 09 0e e4 00 ee ea d4 0f d9 f9 db 10
       -1 0 14 -6 9 14 -28 0 -18 -22 -44 15 -39 -7 -37 16
000090 d8 db ff f2 03 f8 01 ef f1 f0 e4 0b d6 14 d1 03
       -40 -37 -1 -14 3 -8 1 -17 -15 -16 -28 11 -42 20 -47 3
0000a0 fd f4 de e9 17 02 05 dd e3 cc f3 fc 0f e5 ec eb
       -3 -12 -34 -23 23 2 5 -35 -29 -52 -13 -4 15 -27 -20 -21
0000b0 e9 db 11 11 04 13 e1 ef e0 cd f2 ee fb fb d3 f5
       -23 -37 17 17 4 19 -31 -17 -32 -51 -14 -18 -5 -5 -45 -11
0000c0 01 fb 0d 00 eb 07 01 01 dc 1c 03 00 f2 04 0b 0a
       1 -5 13 0 -21 7 1 1 -36 28 3 0 -14 4 11 10
0000d0 08 05 f7 f3 cd f9 1d e0 15 ca fa c5 21 f0 05 01
       8 5 -9 -13 -51 -7 29 -32 21 -54 -6 -59 33 -16 5 1
0000e0 fc f0 ee 04 f5 06 df 14 0a f8 ef f1 eb e9 f7 00
       -4 -16 -18 4 -11 6 -33 20 10 -8 -17 -15 -21 -23 -9 0
0000f0 f0 e9 0f 0a ef 03 04 1f dc e6 05 2c fd fc ed 25
       -16 -23 15 10 -17 3 4 31 -36 -26 5 44 -3 -4 -19 37

model/conv2d_5/Conv2D i1 [32, 3, 3, 32]
000000 d2 07 37 fe da c7 91 f6 5a c3 ae 0f 03 0a a9 d5
       -46 7 55 -2 -38 -57 -111 -10 90 -61 -82 15 3 10 -87 -43
000010 f6 f8 bd e8 b5 f1 d2 09 ad ea cd ff 3b e0 e7 3c
       -10 -8 -67 -24 -75 -15 -46 9 -83 -22 -51 -1 59 -32 -25 60
000020 e7 e0 eb f4 25 d6 d8 f4 65 b0 24 0e d2 2f ee e8
       -25 -32 -21 -12 37 -42 -40 -12 101 -80 36 14 -46 47 -18 -24
000030 1c f1 c5 eb d7 24 f0 3d e6 e4 81 ba f6 b2 b8 ed
       28 -15 -59 -21 -41 36 -16 61 -26 -28 -127 -70 -10 -78 -72 -19
000040 3b 0d 15 d5 44 99 ea f2 7c e6 52 18 f6 28 d6 f6
       59 13 21 -43 68 -103 -22 -14 124 -26 82 24 -10 40 -42 -10
000050 23 f2 87 3b 12 fc f0 cd b3 22 e2 e8 f5 c5 f0 f6
       35 -14 -121 59 18 -4 -16 -51 -77 34 -30 -24 -11 -59 -16 -10
000060 ca 0b fc fc 11 22 bc c7 2a c2 f7 eb fa 03 f9 ea
       -54 11 -4 -4 17 34 -68 -57 42 -62 -9 -21 -6 3 -7 -22
000070 f1 2d cf 12 18 bd 3e 3e ea f0 21 a6 0b db 35 ea
       -15 45 -49 18 24 -67 62 62 -22 -16 33 -90 11 -37 53 -22
000080 ef 39 d7 d8 17 01 e6 c7 76 f6 c3 fe e4 3e d4 03
       -17 57 -41 -40 23 1 -26 -57 118 -10 -61 -2 -28 62 -44 3
000090 c4 12 35 fd 9c de 00 1a ef 19 ef df f2 08 f4 a3
       -60 18 53 -3 -100 -34 0 26 -17 25 -17 -33 -14 8 -12 -93
0000a0 41 26 f4 e6 19 14 22 37 48 11 fd 13 08 10 38 24
       65 38 -12 -26 25 20 34 55 72 17 -3 19 8 16 56 36
0000b0 36 15 eb 2d bc e9 c4 07 0a 12 da c6 c8 e2 fc e9
       54 21 -21 45 -68 -23 -60 7 10 18 -38 -58 -56 -30 -4 -23
0000c0 d6 ee fc c9 c8 05 a1 a2 e1 07 d4 d7 0d 21 00 2e
       -42 -18 -4 -55 -56 5 -95 -94 -31 7 -44 -41 13 33 0 46
0000d0 2f 29 b7 99 de 9f 3b 35 3a 1b 0d 14 b5 fc d8 97
       47 41 -73 -103 -34 -97 59 53 58 27 13 20 -75 -4 -40 -105
0000e0 26 ea 1c 10 25 f4 d7 ab db 16 b2 c5 03 31 0a 08
       38 -22 28 16 37 -12 -41 -85 -37 22 -78 -59 3 49 10 8
0000f0 f6 36 e2 e2 dd e2 2c 37 37 21 ea 21 c4 d4 21 a7
       -10 54 -30 -30 -35 -30 44 55 55 33 -22 33 -60 -44 33 -89

model/conv2d_6/Conv2D i1 [16, 3, 3, 32]
000000 0f ee d5 19 0d fa de 35 fa c9 24 ef 13 12 1f e8
       15 -18 -43 25 13 -6 -34 53 -6 -55 36 -17 19 18 31 -24
000010 02 01 3f 06 32 f3 07 de ce da d0 54 28 02 e1 e7
       2 1 63 6 50 -13 7 -34 -50 -38 -48 84 40 2 -31 -25
000020 26 c9 f3 f1 28 c6 24 dc d4 f2 34 f0 d5 18 d9 ef
       38 -55 -13 -15 40 -58 36 -36 -44 -14 52 -16 -43 24 -39 -17
000030 e8 f4 d8 e7 38 17 0d 06 e9 dd fe 35 08 04 fd b1
       -24 -12 -40 -25 56 23 13 6 -23 -35 -2 53 8 4 -3 -79
000040 e4 08 20 e5 04 f1 e1 21 10 f4 36 db 1b d7 f7 c3
       -28 8 32 -27 4 -15 -31 33 16 -12 54 -37 27 -41 -9 -61
000050 28 0d 21 2b 11 1d 3f d6 0d 3b 41 0e cb 13 34 02
       40 13 33 43 17 29 63 -42 13 59 65 14 -53 19 52 2
000060 e5 fb 05 1a 1d ce d7 c0 ee fa fa 12 f4 d9 23 e6
       -27 -5 5 26 29 -50 -41 -64 -18 -6 -6 18 -12 -39 35 -26
000070 e0 00 f4 08 0f eb d1 c8 0f f4 e5 fd fa 07 e5 fa
       -32 0 -12 8 15 -21 -47 -56 15 -12 -27 -3 -6 7 -27 -6
000080 34 f3 be a8 de fc fc ed cb e8 09 16 a4 34 1c 11
       52 -13 -66 -88 -34 -4 -4 -19 -53 -24 9 22 -92 52 28 17
000090 37 ca 39 fb e8 fa 28 28 0f 1b 1d 4a ce bb 40 c4
       55 -54 57 -5 -24 -6 40 40 15 27 29 74 -50 -69 64 -60
0000a0 10 06 dd f8 31 d1 fe fe 25 fa 1f 07 e1 c8 0b 13
       16 6 -35 -8 49 -47 -2 -2 37 -6 31 7 -31 -56 11 19
0000b0 06 14 c6 f4 ec 14 0a 0f 2e ff 48 e1 35 b5 16 d5
       6 20 -58 -12 -20 20 10 15 46 -1 72 -31 53 -75 22 -43
0000c0 d1 20 0c e6 3c 1f f6 34 e8 81 43 33 1b 12 e5 ee
       -47 32 12 -26 60 31 -10 52 -24 -127 67 51 27 18 -27 -18
0000d0 10 cf 09 3c ca 3a be f2 21 14 bf 2a 0a 47 cb d2
       16 -49 9 60 -54 58 -66 -14 33 20 -65 42 10 71 -53 -46
0000e0 e7 e6 fc d5 cf 30 39 f3 e9 9d 50 0a ea 2b 16 0e
       -25 -26 -4 -43 -49 48 57 -13 -23 -99 80 10 -22 43 22 14
0000f0 46 1c 23 25 2e e1 11 fd e2 f7 e5 3b 30 05 35 eb
       70 28 35 37 46 -31 17 -3 -30 -9 -27 59 48 5 53 -21

model/conv2d_7/Conv2D i1 [16, 3, 3, 32]
000000 00 ba ca 07 44 28 06 e3 f5 c8 fb 22 23 da e6 1c
       0 -70 -54 7 68 40 6 -29 -11 -56 -5 34 35 -38 -26 28
000010 fb 3d 17 ea cb 1b 5f 4b 3c 81 ee 0e d7 fc 92 d2
       -5 61 23 -22 -53 27 95 75 60 -127 -18 14 -41 -4 -110 -46
000020 ef d6 21 b2 49 f7 1a cc 38 24 d3 e2 1e e4 e1 c1
       -17 -42 33 -78 73 -9 26 -52 56 36 -45 -30 30 -28 -31 -63
000030 c4 57 4b a3 c4 49 ca 3b 3b d9 15 f3 d8 e7 b5 f7
       -60 87 75 -93 -60 73 -54 59 59 -39 21 -13 -40 -25 -75 -9
000040 c7 d4 d6 12 f1 15 23 e8 fd 2e 1c 11 be 00 cd 33
       -57 -44 -42 18 -15 21 35 -24 -3 46 28 17 -66 0 -51 51
000050 c2 33 36 0a fc d5 02 d0 d1 d3 2b 33 e2 c6 f7 a8
       -62 51 54 10 -4 -43 2 -48 -47 -45 43 51 -30 -58 -9 -88
000060 37 29 ef a2 06 b0 b4 10 08 ec ab 17 19 e3 d4 bd
       55 41 -17 -94 6 -80 -76 16 8 -20 -85 23 25 -29 -44 -67
000070 33 0a 11 d1 eb 0f 09 e3 02 c2 d5 29 05 f8 a1 a8
       51 10 17 -47 -21 15 9 -29 2 -62 -43 41 5 -8 -95 -88
000080 db de e3 0b ca 29 f7 c4 0b f7 2a fa b6 e3 c8 03
       -37 -34 -29 11 -54 41 -9 -60 11 -9 42 -6 -74 -29 -56 3
000090 d3 19 1f ba bd df 12 cd 1a 18 e1 0c ed 08 d1 f6
       -45 25 31 -70 -67 -33 18 -51 26 24 -31 12 -19 8 -47 -10
0000a0 1e 05 f5 ce 05 c3 03 e9 f9 28 d2 cd db 22 cc ee
       30 5 -11 -50 5 -61 3 -23 -7 40 -46 -51 -37 34 -52 -18
0000b0 b6 5b 32 cd 31 e2 18 f0 c7 47 25 52 26 fc f4 bb
       -74 91 50 -51 49 -30 24 -16 -57 71 37 82 38 -4 -12 -69
0000c0 29 bd da c8 fc fd ec e9 d8 c5 b9 b0 13 d2 1d ca
       41 -67 -38 -56 -4 -3 -20 -23 -40 -59 -71 -80 19 -46 29 -54
0000d0 fd d0 59 b4 d4 db 68 df 49 f2 2a 4a 0c ff ae e1
       -3 -48 89 -76 -44 -37 104 -33 73 -14 42 74 12 -1 -82 -31
0000e0 17 b4 cb e6 d7 10 02 ce e1 b6 c1 a7 c6 c4 18 ae
       23 -76 -53 -26 -41 16 2 -50 -31 -74 -63 -89 -58 -60 24 -82
0000f0 f9 29 13 eb d0 1d 27 d8 f3 f9 f2 e2 0a 38 da a7
       -7 41 19 -21 -48 29 39 -40 -13 -7 -14 -30 10 56 -38 -89

model/conv2d_8/Conv2D i1 [16, 3, 3, 16]
000000 28 f8 f0 28 cd d0 21 dd e4 1f 42 0b 0d 2c 3b e3
       40 -8 -16 40 -51 -48 33 -35 -28 31 66 11 13 44 59 -29
000010 02 d7 f3 e7 e2 07 24 85 c8 53 31 cf 2d 34 e5 12
       2 -41 -13 -25 -30 7 36 -123 -56 83 49 -49 45 52 -27 18
000020 27 24 5b b1 db d1 cc c2 cf 81 0b ae 23 e5 09 26
       39 36 91 -79 -37 -47 -52 -62 -49 -127 11 -82 35 -27 9 38
000030 f6 de 19 18 be 93 10 fb e5 95 dc 13 bf ac b9 f6
       -10 -34 25 24 -66 -109 16 -5 -27 -107 -36 19 -65 -84 -71 -10
000040 21 40 19 be ce 04 0c cf 13 81 f9 cd 22 dc 9d cb
       33 64 25 -66 -50 4 12 -49 19 -127 -7 -51 34 -36 -99 -53
000050 d8 58 f6 e1 ee e7 dc 9c 29 ce f1 06 22 43 e2 d9
       -40 88 -10 -31 -18 -25 -36 -100 41 -50 -15 6 34 67 -30 -39
000060 45 22 16 25 e9 46 c0 20 d9 57 cb 1f d9 1c 22 e9
       69 34 22 37 -23 70 -64 32 -39 87 -53 31 -39 28 34 -23
000070 10 10 48 f8 0e 0a 0f fe dd 31 2e c7 2a 00 f2 d7
       16 16 72 -8 14 10 15 -2 -35 49 46 -57 42 0 -14 -41
000080 25 1f 1e 2a 41 69 0e 84 2b 3e 25 e9 ea 1b 0a fe
       37 31 30 42 65 105 14 -124 43 62 37 -23 -22 27 10 -2
000090 0e 15 da 12 f9 7f e3 de dc 1b de e8 0b 19 eb 00
       14 21 -38 18 -7 127 -29 -34 -36 27 -34 -24 11 25 -21 0
0000a0 1a 03 04 09 0e 26 02 db 0c fc 1f a3 fc 1c 17 06
       26 3 4 9 14 38 2 -37 12 -4 31 -93 -4 28 23 6
0000b0 d4 07 fb 00 d6 11 1d e2 ed 05 1c 00 0d f9 14 23
       -44 7 -5 0 -42 17 29 -30 -19 5 28 0 13 -7 20 35
0000c0 03 e3 df fb 1f 32 0d 1f 23 18 1c 35 f4 18 f9 f8
       3 -29 -33 -5 31 50 13 31 35 24 28 53 -12 24 -7 -8
0000d0 10 f2 f9 0d ec 35 fb d3 ea e8 0f 18 fa e4 ed 0d
       16 -14 -7 13 -20 53 -5 -45 -22 -24 15 24 -6 -28 -19 13
0000e0 d4 d2 0e 0d f7 21 f6 e9 09 05 1d 2f 03 28 e7 ed
       -44 -46 14 13 -9 33 -10 -23 9 5 29 47 3 40 -25 -19
0000f0 17 35 fe f4 e2 09 f1 19 ea 22 e3 f8 18 05 09 0e
       23 53 -2 -12 -30 9 -15 25 -22 34 -29 -8 24 5 9 14

model/conv2d_9/Conv2D i1 [1, 3, 3, 16] scale=0.0029514357 zero_point=0
000000 e6 f6 03 25 26 1d ee 10 08 2b 0e 2d f8 0e ee 41
       -0.07673733 -0.029514357 0.008854307 0.10920312 0.11215456 0.08559164 -0.053125843 0.047222972 0.023611486 0.12691173 0.0413201 0.13281462 -0.023611486 0.0413201 -0.053125843 0.19184333
000010 f1 d7 2a 2d fd fb 20 34 07 d2 ee 31 f4 29 ef 2f
       -0.044271536 -0.121008866 0.1239603 0.13281462 -0.008854307 -0.014757179 0.094445944 0.15347466 0.02066005 -0.13576604 -0.053125843 0.14462036 -0.03541723 0.121008866 -0.050174408 0.13871747
000020 f4 1d f3 f9 ca 2c eb ff e1 eb 23 05 11 dd fc e2
       -0.03541723 0.08559164 -0.038368665 -0.02066005 -0.15937753 0.12986317 -0.06198015 -0.0029514357 -0.09149451 -0.06198015 0.10330025 0.014757179 0.050174408 -0.10330025 -0.011805743 -0.08854307
000030 02 e7 29 21 01 19 06 f0 16 d8 e7 26 17 21 21 2d
       0.0059028715 -0.07378589 0.121008866 0.09739738 0.0029514357 0.07378589 0.017708614 -0.047222972 0.06493159 -0.11805743 -0.07378589 0.11215456 0.06788302 0.09739738 0.09739738 0.13281462
000040 de 23 16 c5 1a 1e f2 dd f3 d5 13 d1 c3 0f ef d1
       -0.100348815 0.10330025 0.06493159 -0.1741347 0.07673733 0.08854307 -0.0413201 -0.10330025 -0.038368665 -0.12691173 0.05607728 -0.13871747 -0.18003759 0.044271536 -0.050174408 -0.13871747
000050 23 bf 21 f0 26 f0 2b d1 f0 e5 fd e5 42 db 57 4b
       0.10330025 -0.19184333 0.09739738 -0.047222972 0.11215456 -0.047222972 0.12691173 -0.13871747 -0.047222972 -0.079688765 -0.008854307 -0.079688765 0.19479476 -0.10920312 0.2567749 0.22135767
000060 37 42 f4 ea 0d dc ff 17 ff 1a c2 fe ec 48 d0 0a
       0.16232896 0.19479476 -0.03541723 -0.06493159 0.038368665 -0.10625169 -0.0029514357 0.06788302 -0.0029514357 0.07673733 -0.18298902 -0.0059028715 -0.059028715 0.21250337 -0.14166892 0.029514357
000070 f5 20 06 f9 e6 ef 25 1f fb e2 14 dd 33 02 01 d4
       -0.032465793 0.094445944 0.017708614 -0.02066005 -0.07673733 -0.050174408 0.10920312 0.09149451 -0.014757179 -0.08854307 0.059028715 -0.10330025 0.15052322 0.0059028715 0.0029514357 -0.12986317
000080 3c fa f8 0c f0 27 b7 f8 7f 01 35 1c f4 2d 0f 12
       0.17708614 -0.017708614 -0.023611486 0.03541723 -0.047222972 0.115105994 -0.21545482 -0.023611486 0.37483233 0.0029514357 0.1564261 0.0826402 -0.03541723 0.13281462 0.044271536 0.053125843
